project/backend/models/human_vital_sign_model (1).pth (torch, 75038 bytes, 5 tensors)

fc1.weight f4 [128, 10]
000000 4d 2f 86 be d6 42 26 3d 69 d8 91 3d 09 8d 0b bb
       -0.26207963 0.040591083 0.07121355 -0.002129378
000010 44 53 13 3d 72 5a 62 bd 84 2c 82 bd 6f 35 64 bd
       0.03596808 -0.055262037 -0.06356147 -0.05571502
000020 40 51 fa be 3c 22 c8 3e 3e f5 ea 3d da d4 3a be
       -0.48890114 0.3908862 0.114725575 -0.18245259
000030 70 d3 2d be fc d9 11 3e 03 39 d7 3c 33 f6 38 be
       -0.16975188 0.1424331 0.026272302 -0.18062668
000040 c7 60 9a bd f2 73 41 bd 0b 0e e8 3d bc 49 e4 bd
       -0.0753799 -0.047229715 0.113308035 -0.11146876
000050 bc d8 0a be 2c 01 9f bd 2f 18 80 bd 8a 66 8d 3c
       -0.1355924 -0.077638954 -0.06254613 0.017260808
000060 72 fd 70 3d 84 aa 41 3c e6 95 d7 3d 89 25 eb bd
       0.058835454 0.011820439 0.10526638 -0.11481769
000070 0a 45 b6 bc f2 dd 98 bd f3 fb 36 be 64 f4 f5 bd
       -0.022249717 -0.07464208 -0.17869548 -0.120095044
000080 6b 59 b3 bc 8e 92 e5 3d 64 cb eb bd 63 64 d2 3d
       -0.021893224 0.11209594 -0.11513403 0.102730535
000090 ed 02 84 3d 52 f0 7a 3e a7 db 12 3e 32 4d 18 3c
       0.064458705 0.24505737 0.14341603 0.009295749
0000a0 f3 47 f2 3e cb b6 c5 bb 90 cc f8 3b 79 6f 68 3b
       0.47320518 -0.0060337535 0.007592745 0.0035466834
0000b0 71 f8 25 bc 93 3c 18 bc c1 29 ba bc 18 1d 84 3c
       -0.010130034 -0.009291786 -0.022724988 0.016127154
0000c0 93 79 ad 3e c2 d6 66 be 09 61 15 be 2d 22 b2 3d
       0.33881816 -0.22542861 -0.14587797 0.08697925
0000d0 b8 7f 69 3d b4 34 27 be 9d ac 80 3d 9c 73 0f bd
       0.057006568 -0.16328698 0.06282923 -0.035022363
0000e0 c2 2f 1e 3e e4 e3 da 3d 0f 30 2f be 51 b9 23 3d
       0.15447906 0.10687998 -0.17108177 0.039971653
0000f0 7a db e9 3e a1 17 aa 3b 59 38 94 3d 27 d8 21 3e
       0.4567526 0.005190805 0.0723731 0.15805112
000100 73 ca e3 bd cd a4 43 bd 0b a7 24 be d3 57 73 bd
       -0.111225985 -0.04776459 -0.16079347 -0.059409928
000110 99 9c 1f 3e ca fb 4f bd db 45 3e bc 14 43 ba bd
       0.15587081 -0.050777234 -0.0116133345 -0.090948254
000120 19 74 26 3d 9c 6d 52 bd a0 f7 f8 3d e6 55 44 bd
       0.040638063 -0.051374063 0.12156606 -0.04793348
000130 38 f3 0b 3e 45 7e b4 3d c0 3b e0 3d ba eb 20 be
       0.13667 0.088131465 0.109488964 -0.15714923
000140 e7 e3 97 be da 03 66 3d fa 37 11 be 5a 04 90 3d
       -0.29666063 0.056156017 -0.1418151 0.0703208
000150 66 b3 93 3c 8e 35 a9 bd 81 10 8a bd 76 ea 09 3e
       0.01802988 -0.08262168 -0.06741429 0.13468346
000160 5c b7 cc be 5e c9 a9 3e 28 99 5e bc 54 9a 51 3e
       -0.39983642 0.33161443 -0.01358632 0.20469028
000170 06 c6 0e be 11 5d d6 3c 3d 2b b7 3d 9d 4b 03 be
       -0.13942727 0.026167424 0.08943794 -0.12821813
000180 37 cb 8f bd d7 63 4f bc d4 5e 8e 3e 67 07 68 be
       -0.07021182 -0.012658081 0.27806723 -0.22659074
000190 41 ce 83 be a4 47 65 3c 74 b9 4c 3d 72 2b 03 3c
       -0.25743297 0.013994131 0.04998155 0.008005964
0001a0 7d 5f 12 3d 72 16 b0 3b f3 97 8c bb fe d0 e4 3c
       0.035735596 0.0053737694 -0.0042905747 0.027931686
0001b0 2c 9c da 3e b8 a3 cc be 72 43 d0 3c fc 3f 22 bc
       0.42697275 -0.39968657 0.025422785 -0.00990295
0001c0 76 7c c6 3d 23 11 26 bd e0 6a 1e bd 0e f5 07 3d
       0.09691708 -0.040543687 -0.038676143 0.033192687
0001d0 5c 68 da bb 32 36 d4 bc 93 cd cc 3e be e1 96 be
       -0.0066652726 -0.025904749 0.4000059 -0.29469103
0001e0 e3 a9 f6 3e 71 e1 da bc 8a 54 02 be d8 2e 29 bd
       0.48176488 -0.026718827 -0.12727562 -0.04130444
0001f0 9c d0 2d 3d b6 30 b4 3d 21 7e 96 bc a2 f8 12 bc
       0.042435274 0.087983534 -0.01837069 -0.0089704115
000200 55 93 40 bd ec 4c 47 3e 94 c2 03 3f 6c 47 c0 3d
       -0.047015507 0.19462937 0.5146878 0.09388623
000210 c6 44 07 3e b5 df 9c bd 22 90 27 bd 9d 1e 13 3e
       0.13209829 -0.07659856 -0.04090894 0.14367147
000220 81 0b 12 3e 3f c6 8e 3c a9 36 90 3d 99 ed 86 bd
       0.14262201 0.017428515 0.070416756 -0.06588287
000230 ae 89 d3 3c 60 47 09 bd c6 7c 38 bd c4 c0 e9 3d
       0.025822487 -0.033515334 -0.04504087 0.1141372
000240 4d 19 e0 bd 92 22 da bd 32 0d fc bc 81 8b 7a 3c
       -0.10942326 -0.10651125 -0.03076801 0.015292049
000250 e7 0f f2 be 6c e3 8d 3e c5 c5 1f be 2f 7d a9 3c
       -0.47277758 0.27712572 -0.15602787 0.020689575
000260 dd dc b5 3d fa 7a bc 3b c1 a9 cb bc 1b 14 2e be
       0.08880017 0.0057519646 -0.024861218 -0.16999857
000270 8e b9 0e 3e 46 4a a3 bd 1e e1 bc be 1b 75 90 3e
       0.13937971 -0.07973151 -0.368905 0.28214344
000280 97 9d c1 3e fa 32 00 3d 25 f3 f8 bd d0 69 91 bd
       0.37815544 0.031298615 -0.12155751 -0.0710026
000290 eb aa bf 3d a3 8a 9d 3d fc db 2c 3e 10 ae 7b 3c
       0.09358772 0.076924585 0.16880792 0.015361324
0002a0 67 1b 6c be 1d 48 c3 3d 9c a8 10 3f 2b 64 0e 3c
       -0.23057328 0.09535239 0.5650728 0.008690874
0002b0 00 3a 24 bc bd d1 91 bc 63 20 47 3b f8 1c a3 bc
       -0.010023594 -0.017800206 0.0030384294 -0.019911274
0002c0 24 a3 03 bc 72 57 89 bc ae 2a 26 3e a3 97 a1 bd
       -0.008034501 -0.01676533 0.16227219 -0.078902505
0002d0 99 cb 48 3e 3d 23 a5 3d 14 e7 3b be 9d 3a 98 bd
       0.19608916 0.08063362 -0.18349868 -0.074330546
0002e0 3d a7 e0 3d 2a b2 bd 3a 3b 0e 91 3d 8a 4d a8 be
       0.10969398 0.0014472653 0.07082792 -0.32871658
0002f0 15 77 ea 3d dd c5 68 bc a9 dc 72 be a1 07 2e 3c
       0.11448494 -0.0142073305 -0.23716988 0.010621936
000300 b7 bb 16 3d 11 14 bb 3d d8 bd 09 3d 55 37 25 bd
       0.036800113 0.09134687 0.033628315 -0.04033597
000310 8f 0a a0 bd 91 a1 98 be 37 f7 2a 3e 98 fa 44 bd
       -0.07814514 -0.29810765 0.16695867 -0.048090547
000320 d1 91 bb 3d de e7 82 bd e5 5c 9f bd 9d 01 4a 3d
       0.09158672 -0.063918814 -0.0778139 0.049317945
000330 2e 7d d8 3d fa d2 df 3d 35 27 60 bc 0b 9b 0b 3e
       0.10570751 0.109289125 -0.013681223 0.13633363
000340 1c 42 8f 3c 98 9c 38 bc 30 64 13 3f b2 c8 e3 3b
       0.017487578 -0.011267804 0.5757475 0.006951415
000350 ce 32 02 3e a9 0d aa bd 35 1d 12 3d 04 51 25 3b
       0.12714693 -0.08303387 0.035672385 0.002522529
000360 f9 f9 c8 3d 80 ff 27 3d 51 df 84 bd be a6 23 3e
       0.098133035 0.04101515 -0.06487907 0.15981576
000370 37 4f c3 bd ec 64 ba bd a4 a9 ef 3d 5b 03 14 bd
       -0.095365934 -0.091012806 0.11702278 -0.036136013
000380 2b f8 9d 3d cf 93 95 3d ad fa d8 bd 00 bb 50 be
       0.0771335 0.07303583 -0.105946876 -0.20383835
000390 c1 a7 9c be 6f f1 d1 bd e9 b3 38 be 11 43 48 bb
       -0.30596736 -0.10251128 -0.1803738 -0.0030557553
0003a0 fa c0 ac 3d 1a c4 c3 3d 7e 04 ef bc 05 0c d1 bd
       0.08435245 0.09558888 -0.029176947 -0.10207371
0003b0 77 ee da bd f5 4e b1 3e f7 e1 d8 bd 61 2f d7 3d
       -0.10690015 0.34630552 -0.105899744 0.10507084
0003c0 76 83 5a be 1a b4 4f bd 0f 6a 23 bb 5e a5 ee 3d
       -0.21339211 -0.050708868 -0.0024935042 0.11652635
0003d0 3c 1a b8 bd f2 5d 6f bd 28 8a ac bd eb b2 28 3e
       -0.08989379 -0.058439203 -0.08424789 0.16474502
0003e0 74 cf ab 3b bf 0e 63 bd d2 f9 83 3d 34 27 9d bd
       0.005243236 -0.055433985 0.06444134 -0.07673493
0003f0 ea 1e ad 3c ed df 3f bd cc 85 99 bc fe 48 f7 bc
       0.021132905 -0.04684441 -0.018740557 -0.030186173

fc1.bias f4 [128]
000000 e4 5d 5b be be d5 38 bd e0 58 9c 3e 96 94 85 3e
       -0.21422535 -0.045125715 0.30536556 0.26089925
000010 b6 78 8d bc 3b fc 3b 3e 4f 57 58 bd 95 12 b1 3e
       -0.017269474 0.18357937 -0.05281764 0.3458449
000020 75 d1 02 bd c4 3e 48 bd a3 bc 07 be ab 26 5b bd
       -0.031938035 -0.048887983 -0.13255553 -0.053503674
000030 40 8b e2 bd 4f 4d 2e be 73 7b 0d be 04 70 78 bd
       -0.11061716 -0.17021678 -0.13816623 -0.0606537
000040 84 61 7f bd 2c 10 97 be 87 e8 7b 3e a8 99 9f 3e
       -0.062348858 -0.29504526 0.24600421 0.31171918
000050 7e f3 d0 3e 64 ba 2e be 9b 32 39 3e 25 db 96 3e
       0.4081077 -0.1706329 0.1808571 0.2946407
000060 e1 48 82 3e 2a f3 3a 3e 86 78 9c 3e aa b6 2e be
       0.25446227 0.18256822 0.30560702 -0.17061868
000070 db f3 ee bd b6 25 71 3e 1c 70 6b bd 08 0a 9b 3e
       -0.116676055 0.23549542 -0.057479963 0.3028109
000080 3e cd a5 3e 3d 0d 93 3d 5e 0d 55 3e 73 8c 20 3e
       0.3238315 0.071802594 0.2080588 0.15678577
000090 bc 75 20 3e 8b 5b d6 bc 5b f2 29 3d bc 4b fb bd
       0.15669912 -0.026166698 0.041490894 -0.122703046
0000a0 5a 8e 96 3e e0 91 2e bd 21 96 93 3e 7b 59 9f 3e
       0.2940548 -0.042619586 0.28825477 0.31122956
0000b0 19 d4 5b 3e 9c 1e 97 3e aa e8 6f 3e 0f 4d ae 3e
       0.21467628 0.2951554 0.23428598 0.34043166
0000c0 d0 83 00 bd ef 47 34 be 36 64 9f 3d cf 52 ba bd
       -0.031375706 -0.17605565 0.077827856 -0.09097826
0000d0 1c 0c ad 3e be 2e 58 3d a6 65 0a be 16 d7 d5 bd
       0.337983 0.05277895 -0.13515338 -0.10441415
0000e0 47 10 7a bd ce c4 5b 3e 8b ed 37 be 15 2b 22 be
       -0.06105068 0.21461794 -0.17961709 -0.15836747
0000f0 a4 6a ca 3e 0a d6 32 3e 41 34 be bd 3a c3 55 3e
       0.39534485 0.17464462 -0.092873104 0.20875254
000100 07 20 8e 3e 0a 7f 1b be 4a 3f 86 3e d9 e3 81 3e
       0.2775881 -0.1518518 0.2622016 0.25369146
000110 ae 09 39 bc 3b b1 92 bd db fe 88 3e c7 00 e1 bd
       -0.011293812 -0.0716271 0.2675694 -0.109864764
000120 5a b9 a5 3e 3e fe ad 3e 42 50 87 3e 3f a5 95 3e
       0.32367975 0.33983034 0.2642842 0.29227635
000130 ee 32 97 3d 73 f7 8b 3e 75 4f 82 3e 81 89 84 3e
       0.07382761 0.27337226 0.25451246 0.25886157
000140 2a c9 98 3e 84 64 a4 3d 53 0c 82 3e 26 7e cc 3e
       0.29840976 0.08026984 0.25400028 0.39939994
000150 f7 fd 76 3e 81 c3 c3 3d d0 f7 65 3e dc fd 2f 3e
       0.24120317 0.09558774 0.22457814 0.17186683
000160 6a 69 18 be 4c 8a ba 3e bb b1 ce 3e 86 1e 8d 3d
       -0.14883962 0.36433637 0.40369973 0.068905875
000170 68 d7 9b 3e c4 b5 93 3e 96 b7 77 3e be 95 6e 3e
       0.3043778 0.28849614 0.24191126 0.2329931
000180 29 12 9a 3e 78 60 63 3e 7a 4d 42 be 1d a9 d3 3e
       0.3009198 0.22204769 -0.18974867 0.4133996
000190 00 0f 8d 3e b4 d2 9b bd e3 63 6f be ef 6e 9d 3e
       0.27550507 -0.07608548 -0.23377948 0.30748698
0001a0 db 25 38 be 75 8a ee 3c a6 d3 9d 3e c0 7c 1c 3e
       -0.1798319 0.029118756 0.30825537 0.15281963
0001b0 0e e0 78 3e 23 96 df bc 35 48 45 be 4d 90 57 bd
       0.2430422 -0.02729327 -0.19265826 -0.05262785
0001c0 b2 f3 f8 bd d6 b3 65 be 27 86 56 be db eb 2d be
       -0.12155856 -0.22431883 -0.20949613 -0.16984503
0001d0 8e ce 51 bd 25 7f 93 bd cd b4 9f 3e 09 2c b0 3e
       -0.051222377 -0.07201985 0.31192628 0.34408596
0001e0 df 06 8a 3e cd e7 11 bd 4d 98 68 3e 6a 5f f1 bd
       0.26958367 -0.035621453 0.22714348 -0.11785777
0001f0 52 36 37 3e 91 ed 2f 3e 5d 0e 99 3c 33 c4 72 3e
       0.17891815 0.17180468 0.018683607 0.23707657

fc2.weight f4 [128, 128]
000000 3a 8b 9d bd 18 00 8f 3c db a6 3a bd 3a 49 dd bd
       -0.07692571 0.0174561 -0.045569282 -0.108049825
000010 4c a4 00 bd 82 5a 00 be b6 f9 d7 bd ed ad 91 3d
       -0.031406686 -0.12534526 -0.105456755 0.07113252
000020 3d cf f9 3b 7e 6f 5b bd 73 9a d5 3d 64 9f a2 ba
       0.0076235817 -0.053573124 0.104298495 -0.0012407121
000030 4b 10 d7 3d 95 17 38 3d 71 1a 44 3c de 3e 7f bd
       0.105011545 0.044944365 0.011969195 -0.062315814
000040 5a af 9c bd ab c0 f4 3d 17 ba a7 3c e8 24 f1 3d
       -0.07650633 0.11950811 0.020474477 0.117746174
000050 63 e2 9e 3d d2 6a 90 bc 78 07 1f be fb 32 84 3d
       0.077580236 -0.01762906 -0.15530193 0.06455036
000060 ff dc 3a bd da 40 bb 3c d4 5a 67 bd 9b 39 f9 3d
       -0.045620915 0.022858072 -0.056483105 0.121691905
000070 3a 3f 00 3e d9 c9 e1 bd e2 ae 40 bd 54 2a e2 bd
       0.12524119 -0.110248275 -0.04704178 -0.1104323
000080 fe fa 72 3d 48 e1 fa bd b5 f5 08 be 4a f4 eb bd
       0.059321396 -0.1225 -0.1337498 -0.11521204
000090 1e 3b 04 be 88 12 c8 3d 2b bb 8b bd 12 05 95 3d
       -0.12913176 0.097691596 -0.06822809 0.07276358
0000a0 f6 0d 44 bd c8 83 87 bd 5e 2b 4e bd 0d 4e 12 be
       -0.047864877 -0.06616932 -0.050334327 -0.14287587
0000b0 99 db 17 3d da ff 99 bd 88 8e 01 3d e9 ec 12 be
       0.03707466 -0.07519503 0.03163007 -0.14348187
0000c0 8c 68 ac 3b fc 10 da 3d 58 90 63 bd fd bb c9 3c
       0.0052614864 0.10647771 -0.05555758 0.024625773
0000d0 f8 29 1e be 82 0d 84 bd 6b e5 db 3d ea 38 41 3d
       -0.15445697 -0.06447889 0.107371174 0.047173418
0000e0 40 96 4d 3d 92 33 4e 3d 52 92 cd bc 78 37 9e bd
       0.050192118 0.05034215 -0.025094185 -0.077254236
0000f0 5c 34 03 3e 24 b6 4c bd 96 75 08 bd f7 99 e1 bd
       0.12812942 -0.04997839 -0.033315264 -0.110156946
000100 25 78 ce 3d f9 82 9b bd 36 15 80 bd 87 23 bc bd
       0.100815095 -0.075933404 -0.06254046 -0.09186464
000110 cb 64 03 3d 88 aa 02 be d0 27 f8 3d e2 57 e5 3d
       0.032078546 -0.12760365 0.12116969 0.11198403
000120 fb b9 fa bd 8f 95 0d be 5d f3 14 3d f6 a7 c7 bd
       -0.12242504 -0.13826583 0.0363649 -0.09748833
000130 63 d9 2b be 9b 09 c2 3d 29 51 3a bd bd 61 14 3d
       -0.16782145 0.09474488 -0.045487557 0.036226023
000140 be 1e f0 3a 81 67 f2 bd b3 f4 b1 bd e1 56 24 3d
       0.0018319709 -0.11836148 -0.08689251 0.040121917
000150 cf ee 12 be aa 23 2f bd d9 94 ae bc cb 67 c2 bd
       -0.14348911 -0.04275862 -0.02131121 -0.09492453
000160 8e 13 0a 3e 53 4b 21 be ad e0 1b be 83 21 05 be
       0.13484022 -0.1575139 -0.15222426 -0.13001065
000170 5d 6c 89 3d 7a 5f 0b be 34 16 b6 3d 17 de 11 3e
       0.06710122 -0.1361064 0.08890954 0.14244877
000180 b3 1d 06 3e 83 57 0c 3e d5 f9 9f 3b ed 0e 1e be
       0.13097267 0.13705258 0.004882077 -0.15435381
000190 5a 67 24 3d 6a 66 31 3d 4f e0 b3 ba e0 8f 17 be
       0.040137626 0.04331056 -0.0013723465 -0.14800978
0001a0 c8 1b c0 3d e9 96 3a 3c 97 23 ae 3d 99 0f ef bc
       0.09380299 0.011388519 0.08502882 -0.029182242
0001b0 85 f4 1f be 0c a2 e5 3d 64 da 19 be 46 7e f9 bd
       -0.1562062 0.112125486 -0.15024716 -0.12182288
0001c0 14 2f 03 3e 37 90 6f bd d4 ff 7e 3d 6e 68 9c 3d
       0.12810928 -0.058487143 0.062255695 0.07637106
0001d0 ee 24 97 bc a4 14 2c bd 7c dd 7d 3d ba 6f d4 bc
       -0.018450227 -0.042011872 0.061978802 -0.025932182
0001e0 09 04 7a 3d 87 bc 86 bd aa 99 bf bd 55 67 d9 bd
       0.061039004 -0.065789275 -0.09355481 -0.10615412
0001f0 41 1e 26 be 8b 61 30 bd d0 27 b5 bd 41 0a f8 3c
       -0.16222478 -0.043061774 -0.08845484 0.030278327
000200 92 ac 8e 3e 39 32 fe bd 58 f1 3c be 92 bc de bd
       0.27866036 -0.12411923 -0.1845144 -0.10875811
000210 d5 09 e4 3e 9d d9 0b 3d e8 13 03 3e 06 6c cb bd
       0.4453875 0.03414308 0.12800562 -0.09932713
000220 dd 42 9a 3d a0 dc 9c bd 1c b2 d0 be 3d 8e 72 be
       0.075322844 -0.076592684 -0.40760887 -0.23687072
000230 48 af 38 3e 70 a7 a5 3e 0d f8 08 3d 74 ac 2f 3e
       0.18035614 0.32354307 0.033439685 0.1715563
000240 8d c1 2f 3e 16 fe 1b 3f 51 32 35 bd a7 ff 47 bd
       0.17163678 0.6093458 -0.04423744 -0.048827793
000250 74 2a 19 be d1 31 13 3e 3e 8e 6d 3d 59 a5 55 bd
       -0.14957601 0.14374472 0.05799698 -0.05215964
000260 d4 4b de 3b 41 08 42 bd ba 05 aa bd 44 44 f8 3d
       0.0067839418 -0.047371153 -0.083018735 0.12122396
000270 a4 ce e6 be 27 08 1c be 49 26 94 3e f9 15 26 3e
       -0.4507953 -0.15237485 0.2893546 0.1621932
000280 33 6c 12 3d 67 c2 1a 3c 34 3b 09 bd 6f 7e 0b 3e
       0.035747718 0.009445763 -0.033503726 0.1362245
000290 af f7 f4 3d 71 5e 89 3d be 2b 5d 3e 34 61 0d bf
       0.119613044 0.067074664 0.21598718 -0.55226445
0002a0 72 ef 3f bd 9f 63 4c 3e 28 82 7b bd a6 be 49 be
       -0.046859212 0.19959877 -0.061403424 -0.19701633
0002b0 b9 29 7b 3d 60 3b 23 be 36 f4 ce 3b f6 0f 0b be
       0.061319087 -0.15940619 0.0063157333 -0.13580307
0002c0 07 1b 2c 3e d6 b4 a7 be 20 34 b0 bd 5d 58 54 3e
       0.16807185 -0.32755154 -0.08603692 0.20736833
0002d0 27 ce a1 bd 0f 27 ab 3e e7 7c f5 be a0 49 df 3c
       -0.079006486 0.33428237 -0.47946855 0.027256787
0002e0 b4 7a 03 3e 40 a2 e5 3d 17 da c5 3e 0b 57 81 3e
       0.12839776 0.11212587 0.38642952 0.2526172
0002f0 8b ce 81 be 4a 96 39 3d 17 6c 8b be 42 7f 8b 3e
       -0.25352892 0.045309342 -0.27230904 0.27245528
000300 27 32 30 be d3 77 cf be 20 7a 32 3e b9 b6 2a 3d
       -0.17206632 -0.40521106 0.174294 0.041678164
000310 b7 9e 31 3d 34 42 03 3e 30 72 89 bd 2e 9f ef 3d
       0.043364253 0.12818223 -0.06711233 0.11700283
000320 82 0a 28 3d b9 0b 23 3e 4e 1c 44 be 87 99 f6 bd
       0.041025646 0.1592244 -0.19151422 -0.12041002
000330 d5 60 69 be f4 76 90 3d da dd b9 bd 23 2f 95 3b
       -0.22790845 0.070539385 -0.09075518 0.0045527383
000340 df 27 f5 bc 73 81 b6 3e f5 aa 0f be ff 89 c1 bd
       -0.029926239 0.35645637 -0.14030059 -0.09450149
000350 35 97 0b 3d 13 28 8c 3e 3f a8 74 bd 6f 69 1f 3e
       0.03407975 0.27374324 -0.059730764 0.15567563
000360 4e 61 08 bf 8b 15 d9 bd ad c1 a6 be 11 89 96 be
       -0.53273475 -0.10599812 -0.32569638 -0.29401448
000370 8f dc d1 be a3 3c 0f be 96 32 d4 3c 92 a8 88 3d
       -0.40988585 -0.13987975 0.025903028 0.06672777
000380 38 ff 8c 3c cd e8 d4 3d 94 99 56 3f 2f 50 f7 be
       0.017211542 0.10395966 0.8382809 -0.48303363
000390 c2 a1 a9 bd 37 90 3e 3d bc 56 9a 3e 63 14 32 bd
       -0.08282806 0.046524253 0.30144298 -0.043476474
0003a0 ed 97 52 bd fe 53 04 bf 20 5d 16 bc 15 98 71 bd
       -0.05141442 -0.5169066 -0.009177476 -0.058982927
0003b0 96 45 82 bc 2f 42 24 bd 70 2f 73 3e a7 78 94 3e
       -0.015902322 -0.04010218 0.23748565 0.289983
0003c0 34 22 06 3e 60 08 8e 3e b7 d0 05 bf 31 70 a3 3e
       0.13098985 0.27740765 -0.522716 0.31921533
0003d0 36 f2 79 3e 24 e8 e7 3c b6 d7 93 bd 1c 98 af 3d
       0.24408802 0.028308935 -0.07218878 0.085739344
0003e0 14 68 da bd 83 fb 40 bd c8 e7 03 be fb aa 7a 3e
       -0.106643826 -0.04711486 -0.12881386 0.24479286
0003f0 47 0a 19 be 92 db e0 3d b4 10 0b 3e 91 49 31 bd
       -0.14945327 0.1097938 0.1358059 -0.04328305

fc2.bias f4 [128]
000000 3d 53 96 bb 3a 2f 3c be 33 20 3a be 6d 13 28 be
       -0.0045875595 -0.1837739 -0.18176346 -0.1641366
000010 ec 5d 55 be 53 20 5b be ba bf b9 bd 0e 71 39 be
       -0.2083661 -0.2139905 -0.09069772 -0.18109533
000020 1d b1 2a be 69 ec a2 3e 89 f2 9e 3e bc 8c 97 3e
       -0.16669126 0.31820992 0.31044415 0.2959956
000030 72 b0 9f 3e e0 c1 90 3e bc 87 9d 3e 3b 35 99 3e
       0.31189305 0.28272915 0.3076762 0.29923424
000040 5e 3a 9b 3e 3f fe 88 3e 88 73 27 be ac cf 96 3e
       0.30317968 0.26756474 -0.16352665 0.29455316
000050 c5 df 25 be 15 e9 37 be 9a ff 92 3e 7c f4 a0 3e
       -0.16198643 -0.17960007 0.28710634 0.31436527
000060 f3 49 6f be 7b 59 cc bd 81 47 a2 3e 7b 9c 7d be
       -0.23368053 -0.099780045 0.31695178 -0.24766724
000070 b3 97 33 be 23 e0 2a be 25 76 cc bd 8f 9e 99 3e
       -0.17538337 -0.16687064 -0.09983472 0.30003783
000080 32 47 45 be 74 23 a5 3e 13 e1 9a 3e 05 e7 39 be
       -0.1926544 0.3225361 0.30249843 -0.18154533
000090 d1 7d 3a be b6 0e 27 be db 8e 20 be 7c f2 97 3e
       -0.18212058 -0.16314206 -0.15679495 0.29677188
0000a0 4f e6 94 3e d1 03 14 be 06 a3 6a be f1 5b 8d 3e
       0.29081962 -0.14454581 -0.22913751 0.27609208
0000b0 35 18 a0 3e 5b 9a 1c be 25 2d 29 be 4f 79 9f 3e
       0.31268468 -0.15293257 -0.16521128 0.3114724
0000c0 77 27 68 be d2 82 9b 3e 45 fd 30 be 1a 38 4d be
       -0.22671305 0.30373245 -0.17284115 -0.20040932
0000d0 c7 c5 9f 3e c3 c2 34 3e 78 45 5b be 8e 28 21 be
       0.3120558 0.1765242 -0.21413219 -0.15738127
0000e0 5c da 94 3e c8 50 8d 3e 2a d1 ce bd 2e 3e 66 be
       0.29072845 0.27600694 -0.10098489 -0.22484657
0000f0 10 97 59 be 16 56 85 3e 96 0b a6 3e 18 06 9d 3e
       -0.21249032 0.2604224 0.32430714 0.30668712
000100 b2 d6 9f 3e d2 0d 9e 3e 47 47 77 be 83 b3 8f 3e
       0.31218487 0.3086992 -0.24148284 0.28066644
000110 5d c2 a7 3e 31 10 97 3e f3 4d a3 3e 21 58 99 3e
       0.32765475 0.2950454 0.31895408 0.2995005
000120 4a 2b a8 3e da 7f 9e bd ad d5 4f be bf 9a 9b 3e
       0.32845527 -0.077392295 -0.20296355 0.303915
000130 64 5f 99 3e 3d 1d 0e be 41 0c 5c be 7c 3b 4b 3e
       0.2995559 -0.13878341 -0.2148905 0.1984691
000140 62 7b a2 3e 91 30 47 be 98 4e 65 be c6 b3 1a be
       0.3173476 -0.1945212 -0.22393262 -0.1510764
000150 6c 01 9e 3e ed 36 a5 3e 81 a8 a8 3e 03 88 9d 3e
       0.3086046 0.32268468 0.32941058 0.3076783
000160 c2 e9 c4 bd a8 13 ec bd 73 52 52 be c7 2a 6f be
       -0.09614898 -0.11527187 -0.20539264 -0.23356162
000170 94 c5 a4 3e 54 cb 6f be b9 90 a7 3e 3e ec 68 be
       0.3218199 -0.23417407 0.32727602 -0.22746369
000180 b4 e3 37 be 17 6c 10 be 0b f1 93 3e ad 88 53 be
       -0.17957956 -0.14103733 0.2889484 -0.20657606
000190 bb a4 95 3e 79 f1 9e 3e b8 07 99 3e 38 87 b7 bd
       0.29227242 0.31043604 0.298887 -0.08961338
0001a0 44 6d 57 3e 3f a3 b4 3e e8 a5 37 be f3 e4 d5 bd
       0.21037775 0.35280797 -0.17934382 -0.10444059
0001b0 9a 1d 31 be f2 51 98 3e 0b 64 a0 3e 0c b5 60 be
       -0.17296448 0.2975002 0.31326327 -0.21944064
0001c0 64 0b 92 3e 94 74 94 3e f0 e6 58 be dc d0 2f be
       0.28524315 0.28995192 -0.21181846 -0.17169517
0001d0 2d 35 a0 3e 27 ec ae bd 3d 58 a5 3e 3c 66 78 3e
       0.3129057 -0.08541136 0.32293883 0.2425775
0001e0 09 f0 42 be aa 27 18 be 2e 47 cc bd 03 ab 95 3e
       -0.19036879 -0.1485888 -0.09974514 0.29232034
0001f0 bc 46 9a 3e ac 7d 8a 3e d7 d6 2e be c6 b0 0c be
       0.3013209 0.27049005 -0.17074142 -0.13739309

fc3.weight f4 [1, 128]
000000 c3 f9 88 3d 9f 6c 22 bf 1e a1 2a bf 44 3e 38 bf
       0.06688263 -0.6344699 -0.66652095 -0.7197001
000010 c3 f9 1a bf 6e 1d 16 bf 91 1a 29 bf 1c b6 1f bf
       -0.60537356 -0.58638656 -0.6605616 -0.6238725
000020 4f a0 05 bf c0 54 b6 3e 51 ed d5 3e 39 70 00 3f
       -0.52197737 0.35611534 0.4178262 0.5017124
000030 3d 08 c7 3e be e8 d7 3e 87 00 e5 3e 71 38 d3 3e
       0.38873473 0.42169756 0.44726965 0.41254
000040 6f 00 f2 3e 24 c1 09 3f 1c 8e 37 bf 83 a2 f0 3e
       0.47265956 0.53810334 -0.71701217 0.46998987
000050 d9 b3 cd be 84 0c 1f bf 41 72 aa 3e 15 91 cf 3e
       -0.40176275 -0.6212847 0.33290294 0.40540376
000060 5c 94 fd be 43 57 1e bf 3b ea e8 3e 1b 73 a6 be
       -0.49527252 -0.618519 0.45491204 -0.32509694
000070 d5 f8 27 bf b7 a0 3f bf a2 6b 3a bf 99 81 37 3f
       -0.6561406 -0.74854606 -0.72820485 0.71682125
000080 5e da 0d bf 3c 58 d0 3e f5 58 11 3f 53 24 df bf
       -0.55411327 0.40692317 0.5677636 -1.743296
000090 ee ca 22 bf b8 8f 3c bf d6 13 1c bf f6 dc c4 3e
       -0.63590896 -0.736568 -0.6096777 0.3844983
0000a0 ff 77 df 3e 84 6c 11 bf 72 f7 ab be dd 86 a7 3e
       0.43646237 -0.56806207 -0.33587223 0.3272008
0000b0 01 ad 04 3f 51 b2 19 bf 0c fc 33 bf 46 96 a0 3e
       0.51826483 -0.60037714 -0.7030647 0.3136465
0000c0 14 d4 29 bf 30 01 cf 3e 2b 12 f4 be 38 5d 23 bf
       -0.6633923 0.40430593 -0.4767011 -0.63814116
0000d0 69 36 0f 3f 56 c1 a6 3e a7 33 00 bf 7c dc f7 be
       0.559424 0.3256938 -0.50078815 -0.48410404
0000e0 95 40 0b 3f 36 47 67 3e fe 71 ed be 68 68 c5 be
       0.5439542 0.22585759 -0.46376032 -0.38556218
0000f0 4b 3c 07 bf be f2 c0 3e 82 f5 a5 3e f4 a7 ee 3e
       -0.52826375 0.37685198 0.3241387 0.46612513
000100 f2 59 19 3f ee 42 f2 3e 4c f5 d5 be 99 d1 b7 3e
       0.5990287 0.47316688 -0.4178871 0.35902098
000110 1c a3 fc 3e ee f5 d9 3e db 54 05 3f 12 b5 11 3f
       0.49343193 0.42570442 0.52082604 0.56916916
000120 5f c4 1b 3f 84 67 29 bf 01 04 42 bf 93 3f 08 3f
       0.60846514 -0.6617358 -0.7578736 0.53222007
000130 bc 1f ae 3e 57 03 3e bf a3 46 05 bf 01 fa e7 3e
       0.34008586 -0.74223846 -0.5206091 0.45307925
000140 f4 9a d0 3e e6 0e 27 bf b1 cf 19 bf 32 61 08 bf
       0.4074322 -0.6525711 -0.60082537 -0.5327331
000150 97 7a 05 3f a0 f5 c0 3e 85 41 be 3e 35 13 b2 3e
       0.5214018 0.37687397 0.37159362 0.3478028
000160 b8 0a ef be a2 c8 f8 be 1a b7 f5 be 95 01 02 bf
       -0.46687865 -0.4859057 -0.47991258 -0.50783664
000170 70 f1 00 3f f7 bc 04 bf 92 e3 d1 3e ee 24 e5 be
       0.50368404 -0.5185084 0.40993935 -0.44754738
000180 05 9f 2f bf 73 d9 ef be bf 4f e7 3e cb 28 29 bf
       -0.6860202 -0.46845588 0.4517803 -0.6607787
000190 37 48 00 3f 37 72 a7 3e 35 6e f4 3e c0 92 4a bf
       0.5011019 0.32704327 0.4774033 -0.7913017
0001a0 cf 24 b7 3e 03 1b af 3e 82 9e 03 bf 10 10 26 bf
       0.3577027 0.34200296 -0.5141374 -0.6486826
0001b0 9e 77 07 bf c7 bf f0 3e 61 b1 ec 3e e0 4b 11 bf
       -0.52916896 0.47021315 0.4622908 -0.567564
0001c0 e3 e9 e9 3e 8e 9e b5 3e 47 82 1b bf 17 75 1a bf
       0.45686254 0.3547253 -0.6074566 -0.60334915
0001d0 cf e9 a9 3e d6 bb 39 bf df 6d c4 3e b5 c7 b7 3e
       0.33186194 -0.7255224 0.38365075 0.35894552
0001e0 13 d5 2c bf ac 12 2f bf 8d 60 21 bf 36 08 fb 3e
       -0.67512625 -0.68387866 -0.6303795 0.49029702
0001f0 9a 43 f4 3e 7b 43 b7 3e 05 92 1d bf 06 63 2f bf
       0.47707826 0.3579367 -0.61550933 -0.6851047
